pb-learn/train/models/movement.onnx (onnx, 4775 bytes, 4 tensors)

encoder.encoder.net.mlp.0.weight f4 [32, 12]
-1.7830737 1.0620426 0.46835732 0.4472988 -0.055962216 0.009533292 0.15474692 -0.10288635
-0.0590213 -0.23326942 -0.46798536 -0.021653771 -0.6561509 -0.19667605 0.0069813775 -0.2680614
-0.0057294653 0.041987598 -11.043386 1.568494 -0.01673174 0.11414716 -0.36248133 0.07034442
0.06907217 -0.6178155 -0.01796539 0.740727 -0.13898282 -0.028832773 -0.23583223 0.3517642
0.014502123 0.06696725 0.53787786 0.25115454 -0.3877245 0.13095415 -0.033790562 3.9026654
-0.017622175 -0.03750544 -0.05806592 -0.09930707 0.005901511 -0.27875483 -0.45107374 0.04249686
-1.3235215 -1.1139559 0.24286354 -0.41054788 0.04951321 -0.052874103 -0.19379818 -0.23656403
0.0034305584 0.24795014 0.73038 -0.27054572 0.54510695 -0.02065428 -0.27665403 -0.3608755
-0.061608326 0.01719081 0.2854575 -0.15059392 0.028914146 0.07936835 -0.4836425 0.26084363
-0.25942385 0.28614512 0.13333973 1.9159366 0.00055056845 -0.020464309 -0.02812836 0.015514686
0.060819704 -0.15940505 0.048257746 0.033563197 -0.45553973 -0.6106283 0.057019044 -0.26635975
-0.055399083 -0.0050588506 -5.8761587 0.93046665 -0.030425258 0.27047765 -0.5648073 0.021850169
-1.5541197 -1.3231282 -0.11892913 0.04391614 0.0628639 -0.042393792 0.107686706 0.17059882
-0.03712392 0.022619188 -0.18301803 -0.23940845 -1.0074124 -0.13514876 -0.05401415 -0.31751359
-0.0014863389 -0.000748565 12.842709 2.0392668 -0.009883671 0.28404182 0.3766692 0.13375959
-1.61482 0.32466498 -0.4504908 -2.4203637 0.058913935 0.019769877 0.049162947 0.09276278
0.12153214 0.22489542 -0.29383394 0.18376148 -0.081112094 -1.6035995 -0.2653604 -0.009175603
-0.84744227 0.09059779 -1.6709007 0.9745356 0.11335288 -0.09769751 -0.3239939 0.21037805
0.4270093 0.6794052 0.43926555 -0.49994603 0.02610511 -0.23441747 -0.55837435 0.32943732
0.38197035 0.118626654 -0.24865988 -0.14853829 -1.1878424 1.0105493 1.6844093 -0.7968279
0.11387417 0.0064 -0.12186292 -0.056135144 -0.10777493 0.189625 -0.90805644 -0.14045887
-2.3388932 0.7931738 -0.05429318 2.6810184 0.01982084 0.038772702 -0.09884556 0.1455413
0.0046237037 0.18402463 0.11563893 0.1516867 0.26946566 0.39944094 -0.20511909 13.606885
0.07258808 -0.076351196 0.01508885 -0.10224715 -0.049798667 -0.014530659 -0.48775068 0.18596736
-1.0694176 0.36058912 0.15022822 -0.13749534 0.0341957 0.06870546 3.775545 1.0574088
0.028759103 0.067103565 1.1274424 -0.035993427 0.21796454 0.14524502 -0.26686576 -2.3916025
-0.8992993 0.0043817987 -0.21707435 -0.014937236 0.08562737 0.2260046 -0.1520107 -0.21804133
-0.82263726 -0.17654479 -0.19096166 -0.51506484 0.42130718 0.032103833 0.3947054 1.3333582
-0.35933733 0.12962997 0.11365344 -0.18573897 -2.2305684 -1.3407298 -0.014506384 2.4078326
0.012946426 0.03581407 -0.055589918 0.13860452 -0.00710958 0.08940244 0.10295925 -0.049817935
1.0845559 -0.8764364 0.036069814 0.5367387 -0.023459034 -0.041396663 -0.11083593 0.31923673
-0.08265032 0.24915904 0.06511834 0.11224747 0.5018998 -0.9121758 0.02872843 -0.38847408
00000000: c23b e4bf 03f1 873f 88cc ef3e 5904 e53e
00000010: a338 65bd 8631 1c3c fa75 1e3e 14b6 d2bd
00000020: 52c0 71bd 2ede 6ebe c79b efbe 4063 b1bc
00000030: 81f9 27bf 7265 49be 0ac4 e43b 583f 89be
00000040: 3dbe bbbb 30fb 2b3d b6b1 30c1 69c4 c83f
00000050: 0111 89bc fcc5 e93d 2797 b9be bc10 903d
00000060: b675 8d3d 2829 1ebf 272c 93bc 49a0 3d3f
00000070: 8351 0ebe b532 ecbc 017e 71be 701a b43e
00000080: 509a 6d3c 2026 893d 5db2 093f 5497 803e
00000090: d383 c6be d818 063e f967 0abd 45c5 7940
000000a0: 615c 90bc 4e9f 19bd 88d6 6dbd 8161 cbbd
000000b0: 7661 c13b f4b8 8ebe 23f3 e6be 3011 2e3d
000000c0: 2769 a9bf 1b96 8ebf 38b1 783e 5533 d2be
000000d0: 5dce 4a3d 8492 58bd 0873 46be d73d 72be
000000e0: 38d3 603b a4e6 7d3e 2ffa 3a3f f884 8abe
000000f0: 218c 0b3f 2a33 a9bc 99a5 8dbe acc4 b8be
00000100: 0359 7cbd bed3 8c3c 7c27 923e 4b35 1abe
00000110: 5cdd ec3c e08b a23d fd9f f7be 4c8d 853e
00000120: 34d3 84be 9d81 923e 368a 083e 693d f53f
00000130: 0654 103a c4a4 a7bc 726d e6bc 4f31 7e3c
00000140: 151e 793d 143b 23be eaa9 453d 9079 093d
00000150: 813c e9be 2352 1cbf cd8c 693d 4e60 88be
00000160: 26ea 62bd b7c4 a5bb 7e09 bcc0 1033 6e3f
00000170: 643e f9bc 0c7c 8a3e 3697 10bf 20ff b23c
00000180: 65ed c6bf 445c a9bf 1e91 f3bd 69e1 333d
00000190: cabe 803d 1da5 2dbd d98a dc3d 75b1 2e3e
000001a0: 400f 18bd e04b b93c 1469 3bbe 7d27 75be
000001b0: e4f2 80bf 7064 0abe f13d 5dbd 2491 a2be
000001c0: 42d1 c2ba 593b 44ba bc7b 4d41 5983 0240
000001d0: 1fef 21bc ee6d 913e c9da c03e 46f8 083e
000001e0: 6cb2 cebf 7d3a a63e bba6 e6be 3de7 1ac0
000001f0: bd4f 713d 70f4 a13c 165f 493d 6afa bd3d
00000200: d8e5 f83d fc4a 663e 6771 96be f82b 3c3e
00000210: 191e a6bd c042 cdbf 51dd 87be 4555 16bc
00000220: faf1 58bf 568b b93d 13e0 d5bf 2a7b 793f
00000230: 8e25 e83d a215 c8bd 87e2 a5be 586d 573e
00000240: f7a0 da3e 80ed 2d3f 6ae7 e03e edf8 ffbe
00000250: 62da d53c 220b 70be 9ff1 0ebf 02ac a83e
00000260: 9e91 c33e 88f2 f23d b2a0 7ebe 6c1a 18be
00000270: 380b 98bf ae59 813f b99a d73f eafc 4bbf
00000280: dc36 e93d 17b7 d13b 4493 f9bd f7ed 65bd
00000290: 1ab9 dcbd 0e2d 423e 6376 68bf 73d4 0fbe
000002a0: 6db0 15c0 700d 4b3f 8762 5ebd ce95 2b40
000002b0: 505f a23c 20d0 1e3d 8a6f cabd c708 153e
000002c0: 7082 973b f470 3c3e 1ad4 ec3d c253 1b3e
000002d0: 67f7 893e 8683 cc3e bd0a 52be cdb5 5941
000002e0: 0fa9 943d 045e 9cbd 3937 773c f466 d1bd
000002f0: b0f9 4bbd 0012 6ebc 75ba f9be 3a6e 3e3e
00000300: ade2 88bf 239f b83e 6dd5 193e 94cb 0cbe
00000310: ca10 0c3d 73b5 8c3d 87a2 7140 2c59 873f
00000320: 3698 eb3c 986d 893d 0850 903f d86d 13bd
00000330: 1932 5f3e 1cbb 143e a1a2 88be 0410 19c0
00000340: 7b38 66bf 3195 8f3b bd48 5ebe 4fbb 74bc
00000350: 675d af3d c06d 673e b1a8 1bbe 3a46 5fbe
00000360: 5b98 52bf 28c8 34be 748b 43be 4adb 03bf
00000370: 93b5 d73e 4f7f 033d d416 ca3e 7bab aa3f
00000380: 10fb b7be b8bd 043e 22c3 e83d 5b32 3ebe
00000390: a2c1 0ec0 099d abbf 2fac 6dbc ee19 1a40
000003a0: 3f1d 543c c6b1 123d 41b2 63bd 58ee 0d3e
000003b0: 7bf7 e8bb a018 b73d 4ddc d23d e40d 4cbd
000003c0: bad2 8a3f 235e 60bf f1bd 133d b567 093f
000003d0: 292d c0bc 8c8f 29bd f3fd e2bd ff72 a33e
000003e0: 9244 a9bd 8c23 7f3e c45c 853d 00e2 e53d
000003f0: 817c 003f 5a84 69bf e257 eb3c 13e6 c6be

encoder.encoder.net.mlp.0.bias f4 [32]
-0.5633885 -0.33285868 0.5263825 -0.49054396 0.45741013 -0.38500777 -0.009107336 -0.62598187
-0.36117363 0.80034244 -0.5922175 -0.39691722 -0.24627127 -0.5041194 0.16155405 -0.25312936
0.93164843 -0.07527141 0.022914104 -0.055915467 -0.05212832 -0.022025064 -0.5106956 0.07747461
0.2187288 -0.2961508 0.29822737 0.74419534 0.40434545 0.21284582 0.26365823 0.822359
00000000: 3b3a 10bf 746c aabe 01c1 063f 9428 fbbe
00000010: a931 ea3e bd1f c5be f036 15bc 5940 20bf
00000020: c0eb b8be 3ee3 4c3f 919b 17bf bc38 cbbe
00000030: 892e 7cbe f80d 01bf 6d6e 253e 2c9a 81be
00000040: 8380 6e3f e627 9abd 5cb6 bb3c 9e07 65bd
00000050: 8184 55bd e86d b4bc f2bc 02bf 02ab 9e3d
00000060: 71fa 5f3e 14a1 97be 42b1 983e 9683 3e3f
00000070: 5e06 cf3e 41f4 593e 36fe 863e 1f86 523f

pi.net.mlp.0.weight f4 [6, 32]
0.44035783 0.13797958 0.10070256 0.11363656 0.20603529 -0.021383736 0.28882122 0.027116397
-0.28102627 0.13168539 0.11129408 -0.25782195 -0.07650225 -0.04819576 0.19075754 -0.007978922
0.07012113 -0.14722773 -0.02909447 0.0710866 0.3682174 0.17099302 0.2541219 -0.18075404
0.082702614 -0.19107875 -0.17129405 0.005772439 0.218881 -0.2054946 -0.011320338 0.005791234
-0.0620536 -1.2002411 -0.27047926 -1.273131 0.12264867 -0.12037205 -0.35684478 -0.7649376
-1.1139609 0.71314967 -0.11530454 -0.716874 -0.23660326 0.018117303 -0.12784526 -0.54640204
0.62855136 -1.4667124 2.0241725 -0.47890884 -1.1703619 -1.0004495 -0.42730466 -0.5876573
1.6032531 2.054403 1.3050922 1.3216236 0.59705365 -0.13532208 -1.0323482 -2.1208339
-0.38505238 -0.32829544 0.9215876 1.094383 -0.80109274 -0.20624042 0.95474774 -0.1556889
0.35832217 -0.006825462 -1.2781938 -0.39864212 0.15986903 -0.12900588 0.54093033 3.8342314
0.18945491 1.1062632 0.16312942 0.63709384 0.5182108 0.3787653 -0.14629619 -0.32701388
0.0741231 -0.036845323 0.31419086 0.38947272 0.2027213 -0.19366488 0.11814575 0.16878828
0.21349566 -0.50004756 -0.34628314 -0.38987327 -1.0612898 0.10175939 -0.17595257 0.099444754
0.2791318 0.36399874 -0.6118101 0.61379945 0.2827856 0.4356086 -0.44865373 -0.15378056
-0.56329197 -0.1639879 -0.19857107 0.6596732 -0.142367 0.18572691 0.97838736 -0.021098336
0.1355323 -0.095052116 -0.14055763 -0.032506622 -0.05362499 -0.055194065 -0.6918991 -0.6418383
0.23266655 -0.5409028 0.12534642 -0.553755 -0.4674389 0.06893007 0.13903414 -0.13131416
0.011330491 0.2074187 -0.7162522 0.50399685 -0.11772661 0.23615201 -0.20852517 -0.2377459
-0.16305469 -0.26067856 0.122285955 0.012692794 -0.2807731 -0.21363464 0.3038527 0.015367611
0.6674715 -0.045779094 0.7280477 0.11161794 0.19748263 -0.0303373 -0.60232496 -0.20295331
1.0196524 -0.12094987 -0.023638446 -1.1190002 0.6084028 -0.651812 0.44529566 -0.3391059
-0.3039196 -0.73723316 -1.4314309 0.19131738 1.0219479 2.7308893 -0.24403955 -0.2181709
0.21534935 -0.24974932 -0.35101926 0.36415946 -0.1632504 -0.013121497 0.249832 0.102022395
0.8633092 0.3548762 0.19080342 0.5729004 0.2953701 0.44719887 0.7693497 -0.67040217
00000000: 9576 e13e 854a 0d3e 253d ce3d 49ba e83d
00000010: eafa 523e f22c afbc 60e0 933e 3523 de3c
00000020: ade2 8fbe 89d8 063e 27ee e33d 3d01 84be
00000030: 36ad 9cbd eb68 45bd f255 433e 06ba 02bc
00000040: ab9b 8f3d dec2 16be 8757 eebc da95 913d
00000050: fe86 bc3e cb18 2f3e 441c 823e 9617 39be
00000060: fd5f a93d 26aa 43be b567 2fbe ba26 bd3b
00000070: 5722 603e 2d6d 52be f078 39bc 64c4 bd3b
00000080: ea2b 7ebd 80a1 99bf 427c 8abe f5f5 a2bf
00000090: 3a2f fb3d 9f85 f6bd 5cb4 b6be f3d2 43bf
000000a0: 4596 8ebf fa90 363f c924 ecbd 0e85 37bf
000000b0: 2048 72be bd6a 943c dee9 02be 01e1 0bbf
000000c0: bee8 203f 3bbd bbbf 0b8c 0140 8a33 f5be
000000d0: 6bce 95bf bb0e 80bf adc7 dabe b570 16bf
000000e0: 6637 cd3f 577b 0340 430d a73f f62a a93f
000000f0: 82d8 183f df91 0abe fc23 84bf bebb 07c0
00000100: 9625 c5be 5716 a8be 2aed 6b3f be14 8c3f
00000110: 6a14 4dbf b030 53be 596a 743f e96c 1fbe
00000120: 0176 b73e 20a8 dfbb db9b a3bf d21a ccbe
00000130: b5b4 233e 1e1a 04be 697a 0a3f 0c64 7540
00000140: 7800 423e 089a 8d3f 660b 273e 9518 233f
00000150: 77a9 043f 87ed c13e abce 15be 5d6e a7be
00000160: dacd 973d 1feb 16bd a0dd a03e f868 c73e
00000170: 2c96 4f3e 1650 46be 66f6 f13d d6d6 2c3e
00000180: 9b9e 5a3e 1e03 00bf 064c b1be 789d c7be
00000190: 58d8 87bf 3a67 d03d e92c 34be b1a9 cb3d
000001a0: 5dea 8e3e 0b5e ba3e 969f 1cbf f621 1d3f
000001b0: 46c9 903e 1708 df3e f1b5 e5be a778 1dbe
000001c0: e733 10bf 72ec 27be 3756 4bbe 58e0 283f
000001d0: a8c8 11be 322f 3e3e 9877 7a3f 6bd6 acbc
000001e0: fbc8 0a3e afaa c2bd 57ee 0fbe aa25 05bd
000001f0: e1a5 5bbd 2c13 62bd 4d20 31bf 844f 24bf
00000200: 2440 6e3e 9b78 0abf d05a 003e e3c2 0dbf
00000210: 2754 efbe 352b 8d3d f75e 0e3e 3877 06be
00000220: 86a3 393c 9165 543e 4e5c 37bf f005 013f
00000230: a61a f1bd d5d1 713e 9f87 55be a973 73be
00000240: cff7 26be a977 85be 0f71 fa3d 70f5 4f3c
00000250: 7ec1 8fbe 0ac3 5abe 9592 9b3e 6fc8 7b3c
00000260: 6adf 2a3f dc82 3bbd 5661 3a3f f297 e43d
00000270: e338 4a3e ee85 f8bc f831 1abf fed2 4fbe
00000280: f883 823f 91b4 f7bd 6aa5 c1bc 663b 8fbf
00000290: 49c0 1b3f 27dd 26bf cbfd e33e 4a9f adbe
000002a0: 5a9b 9bbe 50bb 3cbf 2139 b7bf b4e8 433e
000002b0: 30cf 823f e4c6 2e40 81e5 79be 3168 5fbe
000002c0: 8a84 5c3e 49be 7fbe ccb8 b3be 1c73 ba3e
000002d0: 1d2b 27be 8cfb 56bc f6d3 7f3e 1ef1 d03d
000002e0: d501 5d3f 55b2 b53e f961 433e 9aa9 123f
000002f0: c03a 973e 40f7 e43e 1af4 443f 7a9f 2bbf

pi.net.mlp.0.bias f4 [6]
-0.10699861 0.3262202 0.068587355 -0.19249648 0.027465288 0.4647454
00000000: 1622 dbbd 5606 a73e 8777 8c3d cc1d 45be
00000010: e2fe e03c 1cf3 ed3e
