pb-learn/train/models/movement.onnx (onnx, 3294 bytes, 4 tensors)

encoder.encoder.net.mlp.0.weight f4 [24, 5]
00000000: 8d95 4cbe 149a 02be e369 1dbe 6525 b23d
00000010: ec07 733f 55a9 813e 6cf3 52be cde3 473e
00000020: 02f3 86be a1fb 5d3f e03c e63e d558 023e
00000030: 75a5 493e b9ba bc3d 3072 ecbe 3ada 1fbd
00000040: 20fe 05be 46d0 953d e519 38bf b19a f7bd
00000050: 1497 873d 1552 2abf 2f4c 9fbd 9b51 97bd
00000060: 1eda a23e a609 75bd 551c 43be 8622 b23d
00000070: 1bab c0bd 6e4c 7b3f 50e8 15bf af7e 6ebe
00000080: c12b 8cbd 30b6 1e3e a6e5 743f 9321 cf3e
00000090: 13b7 8cbe cb54 a5be 811e 9abd 91b7 893f
000000a0: 72b9 f73e 3821 88be eefc 54be 2395 49be
000000b0: d919 8e3f 10af e93d 701f 353f d763 f1bd
000000c0: e5dc 453d 7b70 53bd 878d 76bd dc9c 34bf
000000d0: b731 44be 3551 253c 2ca0 873e 4ff9 2ebe
000000e0: 15a5 1a3e 7909 babc e9c5 b03d 3d27 0dbf
000000f0: 2eda 1abe ee51 1c3f f3d3 94bd 1efc 2a3e
00000100: bbf1 45be fe97 9a3e a6d1 c33d fca8 2fbe
00000110: 500c 15be c3d5 2abf 994d 87bd 1faf c83d
00000120: 8bde 34be 5562 07bf 97fd 103f 8b9a 99be
00000130: 31de d1bd 5bcb 863e 26d2 1d3e 4093 153f
00000140: d78e cebc c195 cabd 3de5 533e 40d3 a43d
00000150: f431 2c3f 197e 653e 2c14 c5bd 02a9 c5bd
00000160: 1be6 47bd 2a4b 253f 7776 00bd 8b00 343f
00000170: 8878 aa3d aca2 543d 5a3b 91be 52c3 953e
00000180: a04d 3d3e 2a07 b53e 89fa 823d e732 f2be
00000190: f4fd b83c 0554 45bf 46a9 f6bc ad1d 4bbd
000001a0: 06d1 853e 7b31 cc3e da13 0f3e 92c0 4dbe
000001b0: 82d0 85bd 5c81 6bbf bad4 8fbd 0da7 9fbe
000001c0: 9554 a23e 3b17 a9bd e218 f03e e94a bebd
000001d0: daeb d33e 9bd4 bb3d b81f 853d eae7 fabe
-0.19978924 -0.12754089 -0.15372424 0.08698539 0.9493396 0.25324503 -0.2060067 0.19520493
-0.26357275 0.8671208 0.4496832 0.12729199 0.19692023 0.09215302 -0.46180868 -0.039026476
-0.13085222 0.07315116 -0.7191451 -0.12090052 0.06620613 -0.665315 -0.07778203 -0.07388612
0.31807035 -0.059823655 -0.19053777 0.08697991 -0.09407636 0.981635 -0.58557606 -0.23290513
-0.06844283 0.15499187 0.95662916 0.40455303 -0.27483425 -0.32291254 -0.075253494 1.0759145
0.4838367 -0.26587844 -0.2079961 -0.19685797 1.1101638 0.11410344 0.70751095 -0.11786621
0.048306365 -0.05162094 -0.060193565 -0.7055185 -0.1915959 0.010090162 0.2648939 -0.17087291
0.15102036 -0.022709595 0.08631498 -0.55138 -0.15122291 0.61062515 -0.072669886 0.16697738
-0.19330494 0.30194086 0.09561472 -0.17154306 -0.14555478 -0.66732424 -0.066065975 0.09799027
-0.17663018 -0.5288442 0.5663695 -0.3000072 -0.10247458 0.26327023 0.15412197 0.5842781
-0.025214596 -0.098918445 0.20692916 0.08048105 0.6726372 0.22411384 -0.09622988 -0.09651376
-0.04880343 0.64567816 -0.031362977 0.7031333 0.08323771 0.05191295 -0.28365594 0.2925058
0.18486643 0.35357028 0.06395442 -0.4730446 0.022582032 -0.7708133 -0.030110013 -0.049588848
0.26136035 0.398815 0.13972417 -0.20092991 -0.0653391 -0.9199426 -0.07022996 -0.31182137
0.31705156 -0.08256384 0.46893984 -0.09291632 0.41390878 0.09171411 0.065001905 -0.4900506

encoder.encoder.net.mlp.0.bias f4 [24]
00000000: 1119 b5be ddb2 85bd eda8 9e3e ac27 5c3e
00000010: fe1c d0be 5239 84be c987 e73d 7fb8 9b3d
00000020: 2520 65bd 0d65 7d3f a3f9 e3be dcf9 c03e
00000030: 6e27 2e3f d1f1 243e 3a05 e03e ac88 fd3c
00000040: 3555 1b3c 5e0b b6be c2b2 033f e775 60bd
00000050: 9efd 2cbf 6be9 523e ea78 0fbe 2aff 13bd
-0.35370687 -0.06528256 0.30988255 0.21499509 -0.4064712 -0.25824982 0.11305196 0.07603549
-0.05593886 0.98982316 -0.44526395 0.37690628 0.68028915 0.1610787 0.43753988 0.03094896
0.009480764 -0.35555547 0.5144464 -0.05479994 -0.6757449 0.20596854 -0.14010969 -0.036132015

pi.net.mlp.0.weight f4 [4, 24]
00000000: 9cde 2e3e d775 77be 9c77 823e fffd fabe
00000010: cd0f d9ba 089a 3cbe a3db 773d 0577 2e3e
00000020: f502 d5bc 708b 20be 1962 a63d 58ec 633d
00000030: 21c3 233e 38dd 62be 2dc9 b0bd 0b12 713d
00000040: 0671 0a3c 47f6 b9bd b16b 8cbd 2058 b53d
00000050: 4924 853d 0af7 e23c f643 253d 5611 1cbe
00000060: 16fa 663e cdaa 63be b270 893e 5415 a5be
00000070: aa5a 3f3d 40d9 81be 9273 fb3d 4898 843e
00000080: 857b f3bb c6ae 15be f755 013e eee4 07bc
00000090: a16a e63d cf4c 16be c42d a0be ba29 3e3d
000000a0: 8d06 9f3e 67f6 09be d4d7 d33c ad2e 933e
000000b0: a93f 7abd 991c a5bd e2c6 393e d69a d03d
000000c0: 4b91 c3bc ff91 14be 297a aabe 59b0 903e
000000d0: a730 253e c4cb b8bd bbd0 35be 29b7 4cbe
000000e0: 4314 91be aec2 03bf 98ed 043f 1f5a 9fbe
000000f0: 7c1e c2be f5e7 343d 7fdd 30be 742c d03d
00000100: cdd3 24bd 58ae 4c3e 9668 dabe e187 0ebc
00000110: 4832 c93e feda 213d 1258 dc3e 1776 d6be
00000120: df47 b3bc f95d acbd af77 f93d f68c 12be
00000130: b1e0 813e 0469 85be 9b96 03be 10f2 22be
00000140: d197 c13d 260a 6bbe 86dd 883d a314 473d
00000150: 0294 033e 3d63 543e 1b4a 5bbe c6b3 d93d
00000160: c7bb 953d 1729 e53d d0a4 2fbe 86f9 96bd
00000170: 7b94 983d b21f f8bd 8241 eebd f9b5 fe3d
0.17077106 -0.24166046 0.2548188 -0.4902191 -0.0016560495 -0.18418133 0.060512196 0.1703759
-0.026002387 -0.15678191 0.081241794 0.055645317 0.15992405 -0.22154701 -0.08632121 0.058855098
0.008449798 -0.09080177 -0.06856478 0.08854699 0.065010615 0.027705688 0.040348016 -0.15240988
0.22556338 -0.22233124 0.26843792 -0.32242835 0.046717323 -0.2536106 0.12277903 0.2589743
-0.007430496 -0.14617452 0.12630449 -0.008294327 0.112508066 -0.14677738 -0.31284916 0.046426512
0.31059685 -0.13472901 0.02585975 0.28746548 -0.061095867 -0.08062095 0.18142274 0.101857826
-0.023872992 -0.14508818 -0.33296326 0.28259543 0.1613184 -0.0902324 -0.17755406 -0.19991745
-0.2833577 -0.5146893 0.5192504 -0.31123444 -0.37913883 0.044166524 -0.17271994 0.10164729
-0.04024105 0.19988382 -0.42657918 -0.008699388 0.39296174 0.039515488 0.43035942 -0.4188697
-0.021884857 -0.08416361 0.12181031 -0.14311585 0.25366738 -0.26056683 -0.1285042 -0.15912652
0.09452785 -0.2295309 0.06682877 0.048603665 0.12849429 0.20740981 -0.21414988 0.10629992
0.07311206 0.11189478 -0.17152715 -0.073718116 0.074501954 -0.121154204 -0.116335884 0.12437052

pi.net.mlp.0.bias f4 [4]
00000000: 73e8 223e 7296 5dbc a08e a7be b476 523d
0.15908985 -0.0135246385 -0.32726002 0.051382735
