pb-learn/train/models/movement.onnx (onnx, 3494 bytes, 4 tensors)

encoder.encoder.net.mlp.0.weight f4 [24, 5]
0.12319912 0.04857048 0.25459525 -0.7720263 0.6713311 -0.022206057 0.041452598 -0.11579512
-1.99019 0.4996042 0.38010466 0.012358588 0.80846334 -0.8188125 0.95407116 0.082444064
0.0039830664 -0.14672434 0.8156314 1.0055794 -0.087834224 -0.03451681 -0.33088142 -0.8156345
-0.1789878 -0.284513 0.1751662 0.75051475 0.44367394 0.5347469 -0.16921394 -0.012945809
0.15260209 -1.4147242 0.47857517 -0.058062274 0.044559326 -0.07404334 -2.1757128 0.4820412
-0.33027238 0.10699431 0.08738457 1.5960298 0.99851644 -0.0178576 -0.038588602 -0.14229445
-1.8090308 0.5516991 -0.07956745 0.06767544 -0.12080368 1.7793057 -0.26602903 0.1957058
-0.04670211 -0.06424557 1.4204782 1.13112 -0.028158892 0.06054647 -0.15545908 1.6783105
-0.27090794 0.18302767 -0.055308428 -0.21531852 0.98158413 -1.297327 -0.07092522 0.046950098
-0.0051656063 -2.0506423 0.40490428 0.34995255 0.084616415 -0.45324755 -0.34552494 -0.041500125
0.06413715 -0.028134586 0.050734345 -1.9087994 0.364848 0.0804346 -0.0057884883 0.06812035
2.1205428 -0.5378567 -0.1409019 0.19698012 0.5118272 0.8595334 0.51143336 -0.278678
0.027364094 -0.022740372 -1.6042295 0.35487625 -0.0869612 0.038382277 -0.103502154 -1.4612736
0.23857322 0.16236164 0.010430539 0.34358677 1.6078559 -0.678813 -0.036491368 0.051528316
0.14951505 -2.116457 0.2706224 0.17357652 -0.10477356 -0.2619917 -0.73181343 -2.30747
00000000: d24f fc3d d7f1 463d 4f5a 823e 84a3 45bf
00000010: 5bdc 2b3f 7ae9 b5bc 33ca 293d fe25 edbd
00000020: 8cbe febf 1fcc ff3e 149d c23e ad7b 4a3c
00000030: 74f7 4e3f b29d 51bf 023e 743f 6fd8 a83d
00000040: 6284 823b e83e 16be 38cd 503f d3b6 803f
00000050: 6ee2 b3bd 8061 0dbd 4a69 a9be 6ccd 50bf
00000060: 9448 37be b0ab 91be c55e 333e bc21 403f
00000070: 3b29 e33e 2ce5 083f 6b46 2dbe a91a 54bc
00000080: b943 1c3e af15 b5bf ce07 f53e b5d2 6dbd
00000090: d783 363d 09a4 97bd e13e 0bc0 1bce f63e
000000a0: 7619 a9be d51f db3d aef6 b23d b44a cc3f
000000b0: c69e 7f3f 1a4a 92bc 150f 1ebd a3b5 11be
000000c0: 528e e7bf 273c 0d3f 42f4 a2bd 6c99 8a3d
000000d0: eb67 f7bd 4ac0 e33f f534 88be 1a67 483e
000000e0: b64a 3fbd 2e93 83bd 3bd2 b53f 8ac8 903f
000000f0: 7aad e6bc 93ff 773d aa30 1fbe e1d2 d63f
00000100: 72b4 8abe 9b6b 3b3e 178b 62bd 757c 5cbe
00000110: 1949 7b3f d00e a6bf 3e41 91bd bf4e 403d
00000120: 3f44 a9bb b93d 03c0 9d4f cf3e fb2c b33e
00000130: 5f4b ad3d 1010 e8be a5e8 b0be 09fc 29bd
00000140: 575a 833d 817a e6bc d1ce 4f3d 8a53 f4bf
00000150: 5bcd ba3e e5ba a43d 5cad bdbb af82 8b3d
00000160: f9b6 0740 fab0 09bf 9648 10be 28b5 493e
00000170: 1b07 033f 620a 5c3f 4ced 023f e2ae 8ebe
00000180: aa2a e03c 044a babc 6457 cdbf 57b2 b53e
00000190: b718 b2bd bc36 1d3d f0f8 d3bd 030b bbbf
000001a0: 8a4c 743e 2142 263e dae4 2a3c 9bea af3e
000001b0: 39ce cd3f b0c6 2dbf f977 15bd 5b0f 533d
000001c0: 791a 193e 0874 07c0 058f 8a3e 0bbe 313e
000001d0: 8593 d6bd c723 86be 2058 3bbf 97ad 13c0

encoder.encoder.net.mlp.0.bias f4 [24]
0.44693136 0.3877075 0.9838081 -0.061746895 0.58188 -0.72626907 0.26161173 0.42923456
-0.2920163 0.26405844 -0.28070462 -0.016916074 -0.39270523 -0.11565369 0.43358847 0.84443474
0.33424675 -0.45315325 -0.2914474 0.20480074 0.27433825 -0.15684661 0.4471201 0.45160228
00000000: 30d4 e43e 9981 c63e d9da 7b3f 50ea 7cbd
00000010: 16f6 143f c5ec 39bf f9f1 853e a2c4 db3e
00000020: 2983 95be ab32 873e 84b8 8fbe 9493 8abc
00000030: a910 c9be d8db ecbd 4fff dd3e e02c 583f
00000040: 6422 ab3e b403 e8be 9838 95be 49b7 513e
00000050: 1076 8c3e 669c 20be edec e43e 6a38 e73e

pi.net.mlp.0.weight f4 [6, 24]
0.03258042 -0.3827988 0.0014163045 0.1668248 -0.013996108 -0.04170149 0.21137932 -0.5042543
0.264872 -0.12635958 0.14070728 0.104497455 -0.04818315 0.035196524 -0.06880936 0.11177631
-0.12777135 0.3726746 -0.079085246 0.16099165 -0.10074306 -0.10641864 -0.0805964 0.1182554
-0.11057929 -0.026577123 0.12287236 0.1504135 -0.09345854 -0.18622148 0.08204699 -0.056151863
-0.14256579 -0.118446924 -0.03843666 0.089213625 0.022631906 -0.21505816 0.005346577 -0.06407394
-0.20099658 -0.1362113 -0.020576352 0.10678653 0.20411052 -0.046772085 -0.061473165 -0.05835349
0.047474798 -0.030302018 -0.03287136 0.5820996 0.12027989 0.06652393 0.22357228 -0.14463022
0.013769609 0.41123766 -0.07779062 0.66153187 -0.035712406 -0.48005253 -0.098882765 0.09420494
0.11233768 -0.19806178 -0.0918355 -0.04552298 0.1610461 -0.078014575 -0.22491708 -0.60127354
-0.24856554 0.04074948 -0.1318134 -0.06382036 -0.319852 0.037119437 -0.21508865 0.025470547
-0.07033458 -0.09369341 0.0712663 -0.27071694 -0.18544762 0.33387685 0.19387917 -0.24760436
0.06359439 0.12017856 0.049347427 0.22142923 -0.06504369 -0.027376736 -0.008328529 0.21524574
-0.17283268 0.16710988 -0.08162698 0.028816447 -0.037918426 0.07678432 -0.017655626 0.015360633
-0.052653328 0.15929513 0.011256232 0.1558831 -0.15769184 0.03760825 0.015286777 -0.017820155
0.13672733 0.08358675 0.094209835 0.19181712 -0.23889174 -0.033427555 0.14413525 -0.084516115
-0.41201445 -0.18051231 -0.15413041 0.18557318 -0.2686053 0.20513296 -0.096597694 0.08824184
-0.060700722 0.1579527 -0.050773498 0.05882926 0.13603823 0.09973537 0.26962197 -0.37751842
0.13139907 -0.20792408 -0.1301578 0.08251534 -0.1908694 -0.013721138 -0.13647974 -0.20166394
00000000: 0c73 053d 34fe c3be 4ba3 b93a 1fd4 2a3e
00000010: ef4f 65bc 2ecf 2abd d273 583e cf16 01bf
00000020: 4e9d 873e 6864 01be 9215 103e c302 d63d
00000030: b25b 45bd 3b2a 103d eceb 8cbd faea e43d
00000040: 7ed6 02be 35cf be3e 72f7 a1bd ffda 243e
00000050: 6152 cebd 04f2 d9bd ba0f a5bd e32f f23d
00000060: 6577 e2bd 44b8 d9bc 81a4 fb3d ff05 1a3e
00000070: 3167 bfbd d8b0 3ebe 4108 a83d 7fff 65bd
00000080: c4fc 11be 4d94 f2bd c26f 1dbd a2b5 b63d
00000090: 8c66 b93c 3538 5cbe 5732 af3b 3339 83bd
000000a0: 0cd2 4dbe fa7a 0bbe bd8f a8bc e5b2 da3d
000000b0: 5902 513e 1694 3fbd 49cb 7bbd 1204 6fbd
000000c0: ef74 423d f03b f8bc 1fa4 06bd 7b04 153f
000000d0: 4e55 f63d b33d 883d 22f0 643e f219 14be
000000e0: ed99 613c be8d d23e b050 9fbd 275a 293f
000000f0: 2c47 12bd 72c9 f5be 0c83 cabd 85ee c03d
00000100: 4c11 e63d b5d0 4abe 4014 bcbd 4e76 3abd
00000110: 45e9 243e 1bc6 9fbd aa50 66be 10ed 19bf
00000120: f787 7ebe ede8 263d 18fa 06be 40b4 82bd
00000130: a4c3 a3be 8d0a 183d 3340 5cbe 9ca7 d03c
00000140: 940b 90bd 55e2 bfbd 11f4 913d 699b 8abe
00000150: fbe5 3dbe e8f1 aa3e 4388 463e ff8b 7dbe
00000160: c73d 823d 2d20 f63d 8720 4a3d 58be 623e
00000170: a035 85bd 2d45 e0bc 6274 08bc 6169 5c3e
00000180: 0dfb 30be da1e 2b3e 0c2c a7bd 7810 ec3c
00000190: 5a50 1bbd 1941 9d3d 88a2 90bc 2aab 7b3c
000001a0: 04ab 57bd 431e 233e 0f6c 383c d29f 1f3e
000001b0: f879 21be 1c0b 1a3d 6475 7a3c 93fb 91bc
000001c0: 4002 0c3e 882f ab3d 16f1 c03d b56b 443e
000001d0: 09a0 74be 55eb 08bd 3198 133e c916 adbd
000001e0: 8ff3 d2be 38d8 38be 5dd4 1dbe e506 3e3e
000001f0: a286 89be 600e 523e 03d5 c5bd 23b8 b43d
00000200: 52a1 78bd 5abe 213e dff7 4fbd f3f6 703d
00000210: 9b4d 0b3e 0f42 cc3d e40b 8a3e 184a c1be
00000220: 7a8d 063e 0dea 54be 1648 05be cdfd a83d
00000230: 4573 43be a0ce 60bc 58c1 0bbe fe80 4ebe

pi.net.mlp.0.bias f4 [6]
0.01209711 0.07547389 -0.062991954 -0.23005953 -0.2710537 -0.59860134
00000000: f532 463c 0e92 9a3d ed01 81bd ba94 6bbe
00000010: 8dc7 8abe f03d 19bf
