pb-learn/train/models/movement.onnx (onnx, 3294 bytes, 4 tensors)

encoder.encoder.net.mlp.0.weight f4 [24, 5]
00000000: f099 ec3e 0df2 19be b58a b2bd 8e86 aebe
00000010: 151c 1040 cdf2 7fbf cd70 fb3c 7341 be3d
00000020: a047 99bf 2572 9e3e e324 11bf 2a9c 6cbd
00000030: b10e be3e 60d7 1e3f b871 f83f 882d 48be
00000040: 9360 13be e7c5 fbbc ed25 05be fcf0 f33f
00000050: 0ecb 993f fbf4 01bf c2fd 8dbe 860d c4be
00000060: ed03 41bf cf46 6f3d 2c37 8d3d 7b9d 85be
00000070: a4b6 873e 0e97 04c0 e577 ac3e bd1d 41be
00000080: 0d32 f23d d51f 9a3d e9f4 9ebf 53b7 e43e
00000090: 7d12 ed3d 8f21 56bd ab48 fabe e525 bb3f
000000a0: a428 61be c970 283e 8348 febd 9009 a13f
000000b0: bcd7 4d3f 3a17 923e 9fb8 fa3b f52f 0ebc
000000c0: c5aa 67bf c046 0ec0 1bb3 babe cba1 093e
000000d0: 204c 02be 3f13 153f 7670 05c0 2f85 3dbe
000000e0: 122b 93be fd96 f0bc 2e73 00be bd74 0240
000000f0: 6726 19bf 8984 9ebe 66e4 e23d 2652 ef3e
00000100: 95d7 d23f b088 67be 3c6a a8be c3b6 6f3e
00000110: 95ca f2be a1ac 90bd 1ac9 4f3f a4fe 56be
00000120: fcb5 a33d 4a45 7cbe c92d 0340 38e9 f5bd
00000130: ae35 193f c0f2 8f3e 188c ac3f 6558 9cbd
00000140: 66d6 553f 85ce 06bf 1faf 0cbe dd16 a0be
00000150: 9cbb 1340 d890 b03e 2d60 ca3d 9db5 7e3e
00000160: a924 483e 018c 99bf 43f6 c93f 869e f83e
00000170: 35b9 6dbe 0f72 803f b61f e43e ab91 853f
00000180: 69c4 03bf efa9 8e3e 3286 35be 870b e93f
00000190: 50b5 a43e 31b9 553e efc8 953e 3a55 abbf
000001a0: 31a3 1fc0 8b9b 1b3f b171 893e b2c6 20be
000001b0: 545c 8ebf bb83 923e eabd 423f 50d5 b83f
000001c0: a0c2 a7bb eecb 93bf 578a b9be b60c dcbf
000001d0: 1e1c 9a3e a830 b73d 655f 51bf 15eb 973e
0.46211195 -0.15033741 -0.087178625 -0.34087032 2.251714 -0.9997986 0.030693436 0.09289827
-1.1974983 0.3094646 -0.5669691 -0.057766117 0.37120584 0.62047386 1.9409704 -0.19548619
-0.14392309 -0.030734016 -0.13002749 1.9057918 1.2015092 -0.50764436 -0.27732664 -0.38291568
-0.75396615 0.058417138 0.06895289 -0.2609671 0.2650653 -2.0717196 0.33685222 -0.18859
0.11825953 0.07525603 -1.2418491 0.44671115 0.11575792 -0.052278098 -0.48883566 1.462094
-0.2198816 0.16449274 -0.12416174 1.2581043 0.8040731 0.28533345 0.007651403 -0.008678426
-0.9049495 -2.2230682 -0.36464772 0.13440625 -0.12724352 0.5823249 -2.084989 -0.18507837
-0.28743798 -0.029368872 -0.12543938 2.0383751 -0.5982422 -0.3096049 0.1107872 0.46742362
1.647204 -0.22610736 -0.3289355 0.23409562 -0.47420183 -0.07064176 0.8116623 -0.20995575
0.07993695 -0.24635807 2.0496695 -0.120073736 0.59847534 0.2811489 1.3480253 -0.076340474
0.8353027 -0.52658874 -0.13738678 -0.31267443 2.3083258 0.34485507 0.09881625 0.24873967
0.19545235 -1.1995851 1.5778278 0.48558444 -0.23215182 1.0034808 0.44555444 1.0435079
-0.51471573 0.27864024 -0.17726973 1.8206643 0.3216958 0.20871426 0.29254863 -1.3385384
-2.4943354 0.60784215 0.26844552 -0.15700796 -1.1121926 0.28616127 0.76071036 1.4440098
-0.0051196367 -1.1546609 -0.36238357 -1.7191379 0.30099577 0.08944827 -0.81786186 0.2967154

encoder.encoder.net.mlp.0.bias f4 [24]
00000000: a193 89bd 94cb 003e 0108 a53d 3838 d2be
00000010: dd14 16be fc8b 253e 54a1 203f 5432 52be
00000020: 4ed4 8b3e a73f a23d 9625 e6bd 0312 e7be
00000030: d76b b03e 27e3 33be 1bf2 14be 6857 923f
00000040: 9436 a33e 6d29 863e 15b0 8b3c 8bcc 0ebe
00000050: 5dd0 30be fd8c 833e add5 153f b85b 883e
-0.06717611 0.12577659 0.08058167 -0.41058517 -0.14656396 0.16166681 0.6274617 -0.20527011
0.27310413 0.07922297 -0.11237638 -0.4513093 0.34457275 -0.1756712 -0.14545481 1.1432924
0.31877577 0.2620348 0.017051736 -0.13945214 -0.17266984 0.25693503 0.5852917 0.26632476

pi.net.mlp.0.weight f4 [4, 24]
00000000: 7e7e c83d 5a95 25be 0a9f 8e3d 4af0 1ebe
00000010: f504 f13d 4259 1cbd 2a29 2ebe e9f8 60be
00000020: 8418 5b3e 87c3 afbd ad95 9cbd c21e 13bd
00000030: 6af5 ef3d 00a7 b9be c194 863d 9af8 1a3e
00000040: 2541 02bd 5bae 03be 0c1d fb3b bdf5 1fbe
00000050: 5944 673e e3c0 4fbe 025b 88bd 1194 8e3c
00000060: 3e45 183e c28e a3b9 fd6c 32bd 5d1a 28be
00000070: 24d3 32bc 5cfa 523e 253c 27be f331 9bbe
00000080: d0d2 1a3e ddbb 1e3d dec8 633e 8bef b33c
00000090: c92f b23c 706c ebbe 746b f43d e814 633e
000000a0: 6602 e5bd 70d7 473e c05c 8b3e 8b88 e2bd
000000b0: e454 1abd 9b34 aabc cc73 15ba 0bed c9bd
000000c0: 66b2 18bd 1353 d5be 335e 31bd ef9a 443e
000000d0: 89f6 083e 3118 8d3e 4e96 483e bd38 fb3d
000000e0: 6ea4 abbe 49b5 3c3e 212b a73e 998b afbe
000000f0: 0d01 e3be 6159 773e 6f15 97bd d20c f3be
00000100: d449 f1be 6a42 b13d c844 02be bbeb 54bd
00000110: 2366 ce3e 1773 c6be cccc 20bf f2d1 843d
00000120: 5309 8ebe 4b5a acbd 41fa acbe 6505 9dbe
00000130: 16e9 773d d4cb 3e3e af1b 9f3d 5bce 1b3b
00000140: 63ba 83bd e8cf 723e ee6b 9e3e 79c5 c9be
00000150: 0ae6 55bc c6f0 353e ce23 0bbe e5c2 5cbe
00000160: b6e7 ddbd 6800 3c3d 46c6 a53c b3ac e8bd
00000170: 0e8d 923d febd cebe 32d7 63be dba1 c9bd
0.097897515 -0.16170254 0.06963928 -0.1552135 0.117685236 -0.03817106 -0.1700789 -0.21969952
0.2139607 -0.08582216 -0.07645736 -0.035918005 0.11716731 -0.36260223 0.06571341 0.15133896
-0.031800408 -0.1285948 0.0076633748 -0.15621085 0.22584666 -0.20288424 -0.06657983 0.017404588
0.14870164 -0.00031196146 -0.04356097 -0.16416307 -0.010914598 0.20603317 -0.16331537 -0.30311546
0.15119481 0.03875338 0.22244594 0.021964809 0.021751301 -0.4598117 0.119345576 0.22175944
-0.11182098 0.19515777 0.272192 -0.110612 -0.037678614 -0.020777037 -0.0005701154 -0.098596655
-0.03727951 -0.41664943 -0.043302726 0.19199727 0.13375296 0.2755752 0.19588587 0.12266681
-0.33523887 0.1842853 0.32650092 -0.34286192 -0.4433674 0.24155189 -0.07377135 -0.4747072
-0.4712664 0.086552456 -0.1272155 -0.051982623 0.403123 -0.38759682 -0.62812495 0.064853564
-0.2774149 -0.084156595 -0.3378468 -0.30668178 0.060525022 0.18632442 0.07768952 0.002377412
-0.06432035 0.23712122 0.3094172 -0.39408472 -0.013055334 0.17767629 -0.13587877 -0.21558721
-0.10835211 0.045898825 0.020236146 -0.11361065 0.0715581 -0.40379328 -0.22250059 -0.098453246

pi.net.mlp.0.bias f4 [4]
00000000: d5a1 f8bd 14db bf3d e53d 75bf 46c6 b6bd
-0.12140242 0.09367958 -0.9579757 -0.089245364
