pb-learn/train/models/movement.onnx (onnx, 3615 bytes, 4 tensors)

encoder.encoder.net.mlp.0.weight f4 [32, 5]
-0.035705272 0.42193636 -0.12337068 -0.23803605 0.404196 -0.02691763 0.066549525 -0.08003763
0.12408429 0.15263362 -0.48746848 0.05505315 0.3520146 -0.053061686 -0.046376508 0.422418
-0.22667228 -0.3156126 0.18923359 0.120703764 0.18769796 0.0017399593 -0.042078566 -0.42915708
-0.37297842 -0.23820013 0.32155675 0.1694445 -0.6774241 0.14714596 -0.1500348 -0.028740065
-0.27602476 -0.18998924 0.17242418 0.035926696 0.13015802 0.06778203 0.14746079 -0.24652055
-0.2167897 0.28702757 -0.27371338 0.12301713 -0.003971766 0.29947746 -0.32676718 0.38075215
-0.0075863474 0.011435757 -0.15349588 0.12036031 -0.019900111 -0.1499829 -0.1891971 -0.07052537
-0.23147096 0.08767685 0.06444444 0.4222133 -0.18030442 -0.06358307 -0.37038928 0.15864664
-0.3014454 0.3844554 -0.027447443 0.010622071 0.4025007 -0.083497755 0.3024861 0.10482268
-0.09314588 -0.49683702 0.116880365 0.30380008 -0.041085627 0.3688874 0.18349431 -0.07223719
0.20427175 0.16130093 -0.15849677 0.0736863 0.528506 -0.39730605 -0.44367436 -0.27323908
0.16313644 0.21031934 0.16286813 0.17142811 -0.37783164 0.19632182 -0.30487043 0.11546452
-0.3052376 -0.18969548 -0.10108397 0.1954823 -0.2779749 0.38612178 -0.45642748 -0.1225131
0.10405322 -0.34244248 -0.123117514 0.24179739 -0.017592125 -0.35725096 0.074284606 -0.2512389
0.38499147 0.46800032 0.021482216 -0.19816604 -0.0047789 -0.2202698 0.094520904 -0.5757114
0.5351389 0.017918298 0.19897178 0.23530936 0.22852543 -0.3886095 0.049802147 -0.006837717
-0.33351183 0.26200166 -0.16646865 0.0685684 0.23446566 0.30872205 0.47261274 -0.15628968
0.16839011 -0.4453558 -0.4681924 0.22655559 -0.043186996 -0.2069661 -0.09377796 0.44050467
-0.18486215 -0.089039914 0.006546083 -0.10438287 -0.013752658 -0.45713064 0.15640523 -0.016847555
-0.10808841 -0.3032566 0.43136495 0.43886343 0.22308545 0.270327 0.34864625 0.0836715
00000000: b13f 12bd 0b08 d83e c4a9 fcbd b9bf 73be
00000010: c7f2 ce3e 5d82 dcbc 1e4b 883d c5ea a3bd
00000020: e71f fe3d fd4b 1c3e 7895 f9be 697f 613d
00000030: 423b b43e 3657 59bd 4bf5 3dbd 2c47 d83e
00000040: c71c 68be fa97 a1be 73c6 413e 8933 f73d
00000050: e533 403e 590f e43a 935a 2cbd 7aba dbbe
00000060: 07f7 bebe bcea 73be 16a3 a43e dc82 2d3e
00000070: aa6b 2dbf 6ead 163e b9a2 19be 4970 ebbc
00000080: 1e53 8dbe 8a8c 42be f78f 303e df27 133d
00000090: 2548 053e 4ed1 8a3d f6ff 163e e26f 7cbe
000000a0: 1efe 5dbe 47f5 923e 2924 8cbe 68f0 fb3d
000000b0: 9725 82bb 1c55 993e 074e a7be f2f1 c23e
000000c0: e596 f8bb 0b5d 3b3c 062e 1dbe 777f f63d
000000d0: 8f05 a3bc 1e95 19be e2bc 41be 9b6f 90bd
000000e0: b906 6dbe ec8f b33d 72fb 833d 572c d83e
000000f0: b9a1 38be d737 82bd aaa3 bdbe 4474 223e
00000100: 0d57 9abe 57d7 c43e 76d9 e0bc 3208 2e3c
00000110: 9214 ce3e df00 abbd 75df 9a3e 46ad d63d
00000120: 44c3 bebd 6c61 febe f95e ef3d af8b 9b3e
00000130: 6749 28bd cfde bc3e efe5 3b3e 18f1 93bd
00000140: 9d2c 513e 122c 253e fa4c 22be d8e8 963d
00000150: 2b4c 073f b36b cbbe 4929 e3be fee5 8bbe
00000160: 3d0d 273e f45d 573e e7c6 263e da8a 2f3e
00000170: 2673 c1be 9608 493e fa17 9cbe aa78 ec3d
00000180: 1a48 9cbe 883f 42be 1d05 cfbd 832c 483e
00000190: ba52 8ebe c1b1 c53e ddb0 e9be 26e8 fabd
000001a0: db19 d53d 9f54 afbe 0925 fcbd bc99 773e
000001b0: 5c1d 90bc 99e9 b6be 8722 983d 63a2 80be
000001c0: 9a1d c53e bd9d ef3e 79fb af3c 0aec 4abe
000001d0: 5298 9cbb 688e 61be 2d94 c13d d361 13bf
000001e0: ddfe 083f 65c9 923c 42bf 4b3e f0f4 703e
000001f0: 9202 6a3e d3f7 c6be 56fd 4b3d ed0e e0bb
00000200: 10c2 aabe 1525 863e c276 2abe 976d 8c3d
00000210: c417 703e d110 9e3e 4cfa f13e 670a 20be
00000220: 756e 2c3e ad05 e4be eab6 efbe 30fe 673e
00000230: d9e4 30bd ecee 53be a90e c0bd d489 e13e
00000240: 814c 3dbe 8f5a b6bd 8680 d63b b0c6 d5bd
00000250: d452 61bc 070d eabe b128 203e e203 8abc
00000260: 755d ddbd 7344 9bbe dedb dc3e b5b2 e03e
00000270: 8370 643e 4d68 8a3e c381 b23e f75b ab3d

encoder.encoder.net.mlp.0.bias f4 [32]
-0.27778304 -0.8124505 -0.45372945 0.1148971 -0.004177362 -0.41455424 0.4012185 -0.58769584
0.5519279 -0.09344599 -0.55084836 -0.2926496 0.5426535 0.31752685 -0.5342297 -0.4951467
-0.5352342 -0.077170484 0.289767 0.28205588 -0.5983494 0.6150378 0.49300092 0.39997068
0.321826 0.6165825 -0.39410397 0.3792499 -0.43310148 -0.4628453 0.68815166 0.10063403
00000000: 9439 8ebe c2fc 4fbf 3a4f e8be 2c4f eb3d
00000010: 41e2 88bb 7440 d4be 836c cd3e 3c73 16bf
00000020: 264b 0d3f 9c60 bfbd 6604 0dbf 2bd6 95be
00000030: 57eb 0a3f e192 a23e 47c3 08bf de83 fdbe
00000040: 1c05 09bf 8f0b 9ebd 575c 943e a169 903e
00000050: 6d2d 19bf 1e73 1d3f 9e6a fc3e f5c8 cc3e
00000060: 61c6 a43e 5ad8 1d3f ffc7 c9be 0b2d c23e
00000070: 7abf ddbe 0ffa ecbe b52a 303f 3719 ce3d

pi.net.mlp.0.weight f4 [4, 32]
0.073443934 -0.068536565 0.04217012 -0.010640257 -0.008960266 -0.27464914 0.01064962 0.13688809
0.1783032 0.05690123 -0.037775017 0.089692816 0.07844817 0.08326072 0.06322149 0.14812523
0.18637711 0.13716893 0.051503573 -0.1825847 0.13007483 0.11739364 0.09014743 -0.05017417
0.1685505 0.050096154 0.031791825 0.096459836 0.20334005 0.109766446 -0.13959938 -0.03321591
0.1855104 -0.012021158 -0.11915011 -0.09649367 -0.1041013 -0.0112435445 0.08390949 0.0071877013
0.14815474 0.068780124 -0.10020062 0.072316445 -0.13054249 0.05864855 -0.0688556 0.14333516
0.18910562 0.1922377 -0.19778928 0.13142216 0.013525415 -0.16608277 0.12922974 -0.15038347
0.043309435 0.10516596 0.16777655 -0.09454504 -0.15432225 -0.067628264 0.02134149 -0.08985858
0.027806088 -0.07418706 0.4590557 -0.4461331 0.4138087 0.40524372 0.2461622 -0.020705486
-0.27053964 -0.095454566 0.38293552 0.1074142 -0.27969384 -0.47193494 0.50820124 -0.24182993
-0.44370252 0.22448993 -0.4998225 -0.10929764 0.22451161 0.2559396 -0.40399426 -0.0044851005
-0.6156608 0.3861087 -0.249683 0.45187074 -0.09108352 0.3497983 -0.15558636 -0.46777043
0.38618088 0.32204273 0.53933495 -0.4035512 0.31981525 0.37086582 0.12359913 0.12416321
-0.24424592 -0.2466919 0.43311837 0.25351632 -0.27066994 -0.4965192 0.53245294 0.059170563
-0.007931556 0.10582889 -0.3706614 -0.32796922 0.40365592 -0.16064951 -0.4869914 -0.1974321
-0.10388892 0.4790201 0.11533304 0.2970977 -0.3709055 -0.10103189 0.22703433 -0.06510447
00000000: c669 963d e65c 8cbd 93ba 2c3d 7954 2ebc
00000010: 14ce 12bc d09e 8cbe be7b 2e3c 642c 0c3e
00000020: 1d95 363e 4411 693d fab9 1abd deb0 b73d
00000030: 6fa9 a03d 9984 aa3d 457a 813d 24ae 173e
00000040: a4d9 3e3e 0376 0c3e 69f5 523d 7cf7 3abe
00000050: 5632 053e 146c f03d 379f b83d 6e83 4dbd
00000060: 8198 2c3e a031 4d3d 2538 023d bc8c c53d
00000070: 6038 503e 3bcd e03d 24f3 0ebe 680d 08bd
00000080: 70f6 3d3e 64f4 44bc f904 f4bd 799e c5bd
00000090: 1033 d5bd d836 38bc bdd8 ab3d cf86 eb3b
000000a0: e0b5 173e 98dc 8c3d fc35 cdbd a51a 943d
000000b0: eeac 05be 7639 703d 2a04 8dbd 74c6 123e
000000c0: e7a4 413e f6d9 443e 4689 4abe 8893 063e
000000d0: b499 5d3c 9a11 2abe cd54 043e 20fe 19be
000000e0: 3c65 313d 4061 d73d 9ecd 2b3e d4a0 c1bd
000000f0: a706 1ebe b080 8abd 59d4 ae3c c607 b8bd
00000100: 98c9 e33c 63ef 97bd 5909 eb3e 8f6b e4be
00000110: bcde d33e 1b7c cf3e f211 7c3e 8d9e a9bc
00000120: 2c84 8abe af7d c3bd 2010 c43e fafb db3d
00000130: 0834 8fbe 75a1 f1be 7a19 023f 44a2 77be
00000140: fa2c e3be b0e0 653e bce8 ffbe 71d7 dfbd
00000150: 5fe6 653e 840a 833e 56d8 cebe c0f7 92bb
00000160: f29b 1dbf 0ab0 c53e e6ac 7fbe 9a5b e73e
00000170: ff89 babd c318 b33e 0852 1fbe 9b7f efbe
00000180: 80b9 c53e c9e2 a43e db11 0a3f 439e cebe
00000190: d3be a33e 20e2 bd3e 8a21 fd3d 4849 fe3d
000001a0: 9a1b 7abe cd9c 7cbe b1c1 dd3e e4cc 813e
000001b0: 4095 8abe c437 febe d64e 083f d55c 723d
000001c0: 5bf3 01bc d1bc d83d 55c7 bdbe 95eb a7be
000001d0: fdab ce3e 4e81 24be f056 f9be a42b 4abe
000001e0: b7c3 d4bd 1f42 f53e bb33 ec3d 311d 983e
000001f0: 53e7 bdbe cfe9 cebd b07b 683e 7e55 85bd

pi.net.mlp.0.bias f4 [4]
0.08007077 0.034926813 -0.2803837 -0.38441426
00000000: 25fc a33d 6b0f 0f3d 748e 8fbe f2d1 c4be
