pb-learn/train/models/movement.onnx (onnx, 3879 bytes, 4 tensors)

encoder.encoder.net.mlp.0.weight f4 [32, 5]
0	0x3cce0430	0.025148481
1	0xbe4c0198	-0.19922483
2	0x3e1527de	0.1456599
3	0x3fc098ef	1.5046672
4	0xbe39b72c	-0.18136281
5	0xbc9149b3	-0.017735338
6	0xbc845903	-0.016155725
7	0xbe09427c	-0.13404268
8	0x3f87a80e	1.0598161
9	0xbf8e0eb7	-1.1098241
10	0xbe60ac26	-0.2194067
11	0x3de3adf5	0.11117164
12	0x3c892081	0.016739132
13	0xbf8d6eb7	-1.1049412
14	0xbfb1e370	-1.3897533
15	0x3c1a493a	0.009416873
16	0xbd6bf043	-0.05760218
17	0x3c9e3b7f	0.01931548
18	0x3ff359a2	1.9011729
19	0x3cc17c9d	0.02361899
20	0x3de8e4e9	0.11371786
21	0xbda9a3f2	-0.08283223
22	0x3e862304	0.2619859
23	0xbe37bc74	-0.17942983
24	0xbdb3d116	-0.08780114
25	0x3e6bacfb	0.23015206
26	0x3e9bc7b6	0.30425805
27	0xbebd9c1d	-0.37033167
28	0xbfc30a9b	-1.5237612
29	0x3ed9b484	0.42520535
30	0x3c844d4d	0.016150141
31	0xbe1e0c80	-0.15434456
32	0xbe37778c	-0.17916697
33	0xbf9ebf69	-1.2402164
34	0xbf98c688	-1.1935587
35	0x3e1894f4	0.14900571
36	0x3dc3c68e	0.09559356
37	0xbccee51a	-0.025255729
38	0xbfb18899	-1.3869811
39	0xbfb90da0	-1.4457283
40	0xbdf7951a	-0.12088986
41	0x3dd6762e	0.1047176
42	0xbf57a1be	-0.84231174
43	0x3fc20f37	1.5160893
44	0x3e907776	0.2821614
45	0xbcb905a2	-0.022585694
46	0x3d5b9694	0.0536104
47	0xbd0eec5d	-0.034893382
48	0x3f896e8d	1.0736862
49	0xbf7322ab	-0.94974774
50	0xbe0acce9	-0.1355473
51	0x3e236250	0.15955472
52	0xbb7055b3	-0.0036672174
53	0x3f9730f0	1.181181
54	0x3ed5b24a	0.41737586
55	0xbd5d6366	-0.05404987
56	0xbd231387	-0.039813545
57	0xbd4de8e1	-0.05027092
58	0x3f9bdee1	1.2177392
59	0xbf360885	-0.7110675
60	0xbd57ce20	-0.05268681
61	0xbd6cee10	-0.05784422
62	0x3e8b2330	0.27175283
63	0x3fad5ce2	1.354397
64	0x3dd08bd8	0.10182923
65	0x3ce0d68e	0.027446058
66	0xbea90a67	-0.3301575
67	0xbef33804	-0.47503674
68	0x3fb32476	1.3995502
69	0xbf5fecfe	-0.87470996
70	0xbe28735f	-0.1645026
71	0xbe44d1df	-0.19220684
72	0xbeac8bed	-0.33700505
73	0xbf9957d8	-1.1979933
74	0xbf14ebd2	-0.58172333
75	0x3e8376b3	0.25676498
76	0x3d9dc4ad	0.077035286
77	0x3e502ced	0.20329638
78	0xbfaceab8	-1.350913
79	0x3f70f5eb	0.9412524
80	0x3cd6b9a6	0.026211571
81	0xbd1dcc18	-0.038524717
82	0xbe33552c	-0.17512959
83	0x3fcd8bc0	1.6058273
84	0xbe008671	-0.12551285
85	0xbc39bd8a	-0.011336694
86	0x3ccfdd25	0.025374005
87	0x39f19859	0.0004608061
88	0x40331dbb	2.7986896
89	0xbed8584c	-0.42254865
90	0xbe361d6c	-0.17784661
91	0xbcb9dd11	-0.02268842
92	0x3c575e32	0.0131450165
93	0xbf933dfa	-1.1503289
94	0x3edca922	0.43097788
95	0x3e364f5b	0.17803709
96	0x3e560937	0.20901953
97	0xbe93c00e	-0.28857464
98	0x3fa469cc	1.2844787
99	0x3fa439b2	1.2830107
100	0xbe2adde0	-0.16686201
101	0xbd64349b	-0.05571423
102	0x3e1edb86	0.15513429
103	0x3f8f7c8e	1.1209886
104	0xbf365b06	-0.7123264
105	0x3db59529	0.08866341
106	0xbe161146	-0.14655027
107	0x3e82125a	0.25404626
108	0x3f888a33	1.0667175
109	0xbf9c4555	-1.2208658
110	0xbde80da9	-0.113307305
111	0x3e257c39	0.16160668
112	0x3f8e8404	1.1134038
113	0x3fd4ef77	1.6635579
114	0x3ee6ec5f	0.45102212
115	0x3ccf83bb	0.025331369
116	0x3e580a3e	0.21097657
117	0xbe83d9c6	-0.25752085
118	0xbf9a8863	-1.2072872
119	0x3f304ce7	0.68867344
120	0x3cb9f3f8	0.022699341
121	0xbe6bfbf8	-0.23045337
122	0xbeade692	-0.33964974
123	0xbfb0ea4e	-1.3821504
124	0xbf883eb3	-1.0644134
125	0x3db6dde9	0.08929045
126	0xbe9fa6bf	-0.31181905
127	0x3ebfaa46	0.37434596
128	0xbfbc0ae3	-1.4690822
129	0xbfa7e35f	-1.3116263
130	0x3b89484d	0.004189527
131	0xbe20d295	-0.1570533
132	0x3e7a6d08	0.24455655
133	0x3f8cfb72	1.1014235
134	0xbf85d14c	-1.0454497
135	0x3d558aa4	0.05213417
136	0xbe90a793	-0.2825285
137	0xbde2c31d	-0.11072371
138	0xbfa0f35f	-1.2574271
139	0xbee3c8c6	-0.44489115
140	0xbd9d403d	-0.07678268
141	0xbd0ebe38	-0.034849375
142	0x3e07a34f	0.13245891
143	0xbf814b7a	-1.0101159
144	0x3fa31acd	1.2742554
145	0xbe44d65c	-0.19222397
146	0xbeaa4e3c	-0.33262813
147	0xbea37f28	-0.3193295
148	0x3fb054ab	1.3775839
149	0xbf0f984f	-0.5609178
150	0x3d10fb6e	0.035396032
151	0x3d1d53e9	0.0384101
152	0xbf187c07	-0.5956425
153	0x3fb39ea1	1.4032785
154	0xbe432bbf	-0.19059657
155	0xbc2cc17c	-0.010544177
156	0x3ea53aa7	0.3227131
157	0xbf3fa3c3	-0.74859256
158	0xbfa5a037	-1.2939519
159	0x3ea1a516	0.31571263

encoder.encoder.net.mlp.0.bias f4 [32]
0	0xbdcaa405	-0.098945655
1	0xbf82e3ee	-1.0225809
2	0x3f91fe9e	1.1405828
3	0xbc7bb36d	-0.015362603
4	0xbfd45d8a	-1.6591046
5	0x3f8275da	1.0192215
6	0x3f504d3c	0.8136785
7	0x3f853e85	1.0409704
8	0x3d4cc8eb	0.049996298
9	0xbf8d089e	-1.1018255
10	0xbf044df9	-0.51681477
11	0xbfa52ff7	-1.2905263
12	0xbf988864	-1.1916623
13	0xbf24ec2c	-0.6442287
14	0x3f147655	0.5799306
15	0x3f9235cb	1.1422666
16	0xbe6dc7df	-0.23220776
17	0x3d8cffa4	0.06884697
18	0x3fb91621	1.4459878
19	0xbf772c41	-0.965519
20	0xbf5041a1	-0.8135014
21	0xbf65d098	-0.89771414
22	0x3e5e7d72	0.21727541
23	0x3f752f69	0.9577547
24	0x3f017319	0.5056625
25	0x3f21f662	0.63266575
26	0xbf477b0d	-0.77922136
27	0x3f0fe17b	0.5620343
28	0x3f8aca52	1.0842993
29	0xbf483b3c	-0.78215384
30	0xbd292cf7	-0.041302647
31	0xbdd98187	-0.106204085

pi.net.mlp.0.weight f4 [6, 32]
0	0x3e99a6a6	0.30009955
1	0x3d79e401	0.061008457
2	0x3e1d331f	0.15351532
3	0x3dc63604	0.096782714
4	0x3e824f48	0.25451112
5	0x3e95c38d	0.29250756
6	0xbe8b3098	-0.27185512
7	0xbe411744	-0.18856531
8	0xbd9adb0c	-0.07561311
9	0xbe3779ba	-0.17917529
10	0xbe13d059	-0.14434947
11	0xbdb09e72	-0.08623971
12	0x3d2690ef	0.040665563
13	0x3e064826	0.1311346
14	0x3d6e66f3	0.05820365
15	0xbe20148b	-0.15632837
16	0x3ea6311d	0.32459345
17	0x3f3264bf	0.69684976
18	0x3e02749f	0.127398
19	0x3e53c121	0.20679142
20	0x3f1594b8	0.5843005
21	0x3bcd5c52	0.006267109
22	0x3dd75930	0.10515058
23	0xbdad6a09	-0.0846749
24	0xbe2b80b4	-0.16748315
25	0xbe134691	-0.14382388
26	0xbc30a02b	-0.0107803745
27	0xbe2e367b	-0.1701297
28	0x3b84c76b	0.004052093
29	0x3e9c3a2b	0.3051313
30	0xbd8ac181	-0.06775189
31	0xb94267f5	-0.00018540009
32	0x3e4b963b	0.19881527
33	0xbd25eee4	-0.040511027
34	0xbcbf86ae	-0.02337965
35	0x3ddeb53f	0.10874414
36	0x3f0d1ec5	0.55125076
37	0xbd9a8e17	-0.07546633
38	0xbe3655f9	-0.17806233
39	0x3c88a60a	0.016680736
40	0xbd0239af	-0.031793293
41	0x3d052758	0.032508224
42	0x3e8683d9	0.26272467
43	0x3d66e838	0.056373805
44	0xbe420e39	-0.18950738
45	0x3e0f6057	0.14001594
46	0x3b881ff7	0.004154201
47	0x3e2b3a99	0.16721572
48	0xbdadb7e4	-0.0848234
49	0xbd8fe560	-0.07026172
50	0x3e14bef0	0.14525962
51	0xbe73461e	-0.23757216
52	0x3dd3a1b1	0.103335746
53	0xbde3b412	-0.1111833
54	0xbe27f369	-0.16401447
55	0x3d9af5f2	0.075664416
56	0x3e3e80f5	0.1860388
57	0xbdb8a6c2	-0.090161815
58	0x3cf43f33	0.029815292
59	0x3b4bdeaa	0.003110806
60	0x3d12f488	0.035877734
61	0xbe0335bb	-0.12813465
62	0xbe60c405	-0.21949776
63	0x3dfdb743	0.1238847
64	0x39daba42	0.00041718973
65	0xbe96b2bc	-0.29433239
66	0xbec2b09c	-0.38025367
67	0x3ecb02d0	0.39650583
68	0xbe20565a	-0.1565794
69	0xbcf73747	-0.030177725
70	0xbec688cf	-0.38776252
71	0xbf16aeb7	-0.58860344
72	0x3d12d2ca	0.035845555
73	0xbdccbaeb	-0.09996589
74	0xbd29721e	-0.041368596
75	0x3e3509ec	0.17679566
76	0xbe5a9312	-0.21345165
77	0xbdb5248a	-0.0884486
78	0x3e9f5e37	0.31126568
79	0x3e235b46	0.15952787
80	0xbd1cc8cb	-0.03827743
81	0xbeb028c9	-0.34406117
82	0xbe11b95a	-0.14230862
83	0x3e8d1321	0.27553657
84	0xbe4a4a61	-0.19754936
85	0xbe91e797	-0.28497002
86	0xbd0bb68b	-0.034109633
87	0xbe21d258	-0.15802896
88	0xbe0ff9db	-0.14060156
89	0xbe820146	-0.25391597
90	0xbe8b46c2	-0.2720242
91	0x3e7a853d	0.24464889
92	0x3eb611b4	0.3556038
93	0x3d9e433a	0.07727666
94	0xbeba28b1	-0.3635917
95	0xbdbef2ea	-0.09323676
96	0x3cb420e6	0.021988343
97	0xbd83f9d9	-0.06444139
98	0xbe525fb4	-0.2054432
99	0xbe2a1785	-0.16610534
100	0xbd475fdc	-0.048675403
101	0xbcf5d2a2	-0.030007664
102	0xbe49f653	-0.19722871
103	0x3d4b9724	0.049704686
104	0x3cdd24bf	0.026995061
105	0xbd6a30f7	-0.057175603
106	0xbe3b3f59	-0.18285884
107	0xbe48e33a	-0.1961793
108	0xbd4c5958	-0.049889892
109	0x3dad5441	0.08463336
110	0x39969698	0.0002872243
111	0xbdf3981c	-0.11894247
112	0xbcd9e218	-0.026597068
113	0x3e41de8e	0.18932554
114	0xbe3f9ee4	-0.18712956
115	0xbc901300	-0.017587185
116	0x3de65059	0.11245794
117	0xbd279413	-0.0409127
118	0xbe35719f	-0.17719124
119	0x3e287c8c	0.16453761
120	0x3db65209	0.08902366
121	0xbdc9f6ca	-0.098615244
122	0x3e89664a	0.26835853
123	0x3dd87452	0.10569061
124	0xbcc14f1b	-0.02359729
125	0xbc82c748	-0.015964165
126	0xbe14637c	-0.14491075
127	0xbdf7889a	-0.120866016
128	0x3dabb27c	0.083836526
129	0x3e27ad6a	0.16374746
130	0x3e8cf239	0.2752855
131	0xbcc772b6	-0.02434669
132	0x3ebbc2a1	0.36671928
133	0xbcaa48dd	-0.020786697
134	0x3c8843b6	0.01663385
135	0xbd2dcd54	-0.042432144
136	0xbac2e82d	-0.0014870219
137	0xbe31397a	-0.17307082
138	0x3e138e5d	0.14409776
139	0x3d9fc608	0.07801443
140	0xbe4d61c3	-0.20056824
141	0x3e029374	0.12751561
142	0x3c937292	0.017998967
143	0x3da5b400	0.08090973
144	0x3d93f573	0.0722455
145	0xbe10f23a	-0.14154902
146	0x3e0e5c34	0.1390236
147	0xbdbabc6b	-0.09117969
148	0x3e6d8f72	0.23199251
149	0xbe0fb433	-0.14033584
150	0x3e099c56	0.13438544
151	0xbd9a02a0	-0.07520032
152	0x3da09bef	0.07842242
153	0xbdc7674a	-0.09736498
154	0x3e017aeb	0.12644546
155	0xbe00427b	-0.1252536
156	0x3e8db117	0.2767417
157	0x3b04d632	0.0020269272
158	0xbd2e71b4	-0.042588905
159	0x3dd96aa0	0.1061604
160	0x3c2b2f58	0.010448299
161	0x3995bc10	0.00028559612
162	0xbe36306b	-0.17791907
163	0xbd2ebb1f	-0.04265892
164	0x3f30af43	0.6901743
165	0xbe98d032	-0.2984634
166	0x3e36116b	0.17780082
167	0x3ea7367c	0.32658756
168	0x3c3a69d7	0.011377773
169	0x3e05c553	0.13063554
170	0xbc9311a3	-0.017952746
171	0x3c3ec066	0.011642551
172	0x3dcb5cae	0.099297866
173	0xbd2b3bec	-0.041805193
174	0xbe2aafa2	-0.16668561
175	0xbc8661af	-0.016404001
176	0xbd2957e5	-0.04134359
177	0x3d4916ee	0.049094133
178	0xbdb812dc	-0.08987972
179	0xb9db51e6	-0.00041831954
180	0xbf235776	-0.6380533
181	0xbde17596	-0.11008756
182	0x3d91ce8c	0.07119474
183	0xbdbfd618	-0.09367007
184	0xbe6a1813	-0.22860746
185	0xbdbb1ddb	-0.09136554
186	0x3d943a49	0.072376795
187	0x3cf4e919	0.029896306
188	0x3e032449	0.1280681
189	0xbe1826d2	-0.14858559
190	0x3d222487	0.039585616
191	0x3e7756fe	0.24154279

pi.net.mlp.0.bias f4 [6]
0	0x3e1ad864	0.15121609
1	0x3d9c6411	0.07636274
2	0x3d9d73c7	0.076880984
3	0xbe00c87a	-0.12576476
4	0xbc40835f	-0.011750071
5	0xbeacd594	-0.33756697
